examples/physics_model.pth (torch, 49800 bytes, 8 tensors)

network.0.weight f4 [128, 7]
0	0xbeaf6f2b	-0.34264502
1	0x3debaad4	0.11507192
2	0x3e947954	0.28998816
3	0x3e5eec2e	0.21769783
4	0x3d4b675d	0.04965912
5	0x3ddea927	0.10872107
6	0xbe3b09da	-0.18265477
7	0x3d926033	0.07147255
8	0xbea6ad41	-0.32554057
9	0x3e362bde	0.17790172
10	0xbe07af35	-0.1325043
11	0xbea51c5a	-0.32248193
12	0xbda14c92	-0.07875933
13	0x3d32ed23	0.043683182
14	0xbe226c37	-0.15861593
15	0xbe6c508e	-0.23077604
16	0x3e001ffe	0.12512204
17	0xbd881e57	-0.06646412
18	0x3d707f3f	0.0587151
19	0x3d8573a4	0.06516197
20	0xbe21c8ac	-0.15799206
21	0xbe0da60a	-0.1383287
22	0xbd97e3b5	-0.074164785
23	0xbe9e6744	-0.3093816
24	0x3dcf9fe4	0.101379186
25	0xbe09753f	-0.13423632
26	0xbe815851	-0.25262693
27	0x3ebf42a1	0.3735552
28	0xbd91c1c9	-0.0711704
29	0x3dfa5cf8	0.12224764
30	0x3e069ea2	0.13146451
31	0xbc9f52cf	-0.019448666
32	0xbe60549b	-0.21907274
33	0x3e640e57	0.22271095
34	0xbd80ff59	-0.06298704
35	0xbe76bb6a	-0.2409493
36	0xbde45c30	-0.11150396
37	0xbd1baee3	-0.03800858
38	0xbe31984e	-0.17343256
39	0x3e195f48	0.14977753
40	0x3e92c8b2	0.28668743
41	0x3eae725b	0.3407162
42	0xbcca14a8	-0.024668053
43	0xbd346474	-0.044041112
44	0xbd798f9e	-0.06092798
45	0xbe957da2	-0.29197413
46	0xbe07a33b	-0.13245861
47	0x3e50a636	0.20375904
48	0x3ccb05e5	0.024783084
49	0x3eab6055	0.33471933
50	0x3e487c29	0.19578613
51	0xbe23fdc7	-0.16014777
52	0x3eb40131	0.3515716
53	0x3e2457f2	0.16049173
54	0x3da61307	0.08109098
55	0x3d546126	0.05185046
56	0xbe0e6e1d	-0.13909192
57	0x3ec1737e	0.37783426
58	0xbcfd7a74	-0.03094218
59	0xbe9d3861	-0.30707076
60	0x3e8d6cfb	0.27622208
61	0x3cfb3fd2	0.03067008
62	0x3e906a1b	0.28205952
63	0xbe0fb0f7	-0.1403235
64	0x3e8e0723	0.2773982
65	0x3d81e667	0.06342774
66	0x3da9d749	0.082930155
67	0x3d9fd883	0.07804968
68	0xbe54ba7e	-0.20774266
69	0x3e110424	0.14161736
70	0x3eb1e106	0.34741992
71	0x3d97315b	0.07382461
72	0x3eb2d594	0.34928572
73	0xbda3379e	-0.079695925
74	0xbeb58143	-0.3545018
75	0xbeb10d66	-0.34580535
76	0x3d87be32	0.06628074
77	0xbea74a4b	-0.3267387
78	0x3ea47b54	0.32125342
79	0x3eaf005f	0.3417997
80	0xbc3d0455	-0.011536677
81	0x3eaaaa0d	0.33332863
82	0xbc81ced3	-0.015845692
83	0xbeb23027	-0.34802362
84	0x3e028ee7	0.12749825
85	0xbe9709b8	-0.29499602
86	0x3e347a97	0.1762489
87	0xbe3e5375	-0.18586524
88	0xbea220f4	-0.31665766
89	0xbea5ad4e	-0.32358783
90	0x3ccae86a	0.024769027
91	0x3e37e625	0.17958887
92	0x3ebbea52	0.3670221
93	0xbd6b61fa	-0.057466485
94	0x3e4b787a	0.19870177
95	0x3d91c11a	0.07116909
96	0xbde03952	-0.10948433
97	0x3e7ccb6e	0.24686977
98	0xbdb3b1b9	-0.08774132
99	0xbd86f334	-0.06589356
100	0xbebcf450	-0.36905146
101	0xbdbf81d1	-0.093509324
102	0x3eb437d5	0.35198846
103	0x3d4dbb45	0.050227422
104	0x3e529059	0.20562877
105	0xbe0ab100	-0.13544083
106	0x3e647b32	0.2231262
107	0xbe55f13d	-0.20892806
108	0x3ebf9ad1	0.37422803
109	0xbebee304	-0.37282574
110	0xbeb6d1f4	-0.35707057
111	0xbe87ccfa	-0.26523572
112	0x3eae1e54	0.34007514
113	0x3e881b27	0.26583216
114	0x3e8bd1d3	0.2730852
115	0xbcd8dff5	-0.026473979
116	0x3d799b31	0.060939018
117	0xbba0e208	-0.0049097575
118	0x3e477b49	0.19480623
119	0xbe6fa8b4	-0.23404199
120	0x3e5e8217	0.21729313
121	0xbe805d04	-0.25070965
122	0xbec0d6e5	-0.37663952
123	0xbcb88814	-0.022525825
124	0x3d85ca56	0.06532733
125	0xbe868b1f	-0.26278016
126	0x3d2a9420	0.04164517
127	0xbeaa1317	-0.3321769
128	0xbd279adb	-0.040919166
129	0xbeb9e76a	-0.36309367
130	0xbd51b46b	-0.05119745
131	0xbe55d7d8	-0.20883119
132	0xbec09873	-0.3761631
133	0xbdcea01a	-0.10089131
134	0x3e07220c	0.13196582
135	0xbd518d95	-0.051160414
136	0x3ea9f757	0.33196518
137	0x3c1cd547	0.009572334
138	0x3eb5dd54	0.35520422
139	0xbe9dd0bd	-0.30823317
140	0x3e71ddb4	0.2361973
141	0x3e1bc800	0.15213013
142	0x3ca6abbf	0.020345567
143	0xbe8ff2e3	-0.28114995
144	0x3e99b028	0.3001721
145	0x3e9d9eed	0.30785313
146	0x3ea17478	0.3153417
147	0xbeb95485	-0.36197296
148	0xbdd59665	-0.10429076
149	0xbdc87af8	-0.097890794
150	0x3e68c8ed	0.22732897
151	0xbe0b796e	-0.1362054
152	0xbe4326c7	-0.19057761
153	0x3e2fd80a	0.17172256
154	0x3ea36a18	0.3191688
155	0xbe8e5ea6	-0.27806586
156	0xbe974b4b	-0.2954963
157	0x3e3b3070	0.18280196
158	0x3e1a0399	0.15040435
159	0x3b64c10f	0.003490511
160	0x3e9bb90a	0.3041461
161	0x3e1f68ee	0.15567371
162	0xbcde42ad	-0.027131403
163	0x3e67bdbd	0.22630973
164	0x3d7217af	0.059104618
165	0x3d384b2e	0.044993572
166	0xbe5bb429	-0.21455444
167	0x3ebf7c32	0.3739944
168	0x3e478b5a	0.19486752
169	0x3e8583a8	0.26077008
170	0x3e9b51fb	0.30335984
171	0xbe7f07c3	-0.24905305
172	0x3e99e839	0.30059984
173	0x3e7e1be1	0.24815322
174	0xbe09859b	-0.13429873
175	0xbe4205ae	-0.18947479
176	0xbe435d0a	-0.1907846
177	0x3c474fb1	0.012164996
178	0xbea3530a	-0.3189929
179	0x3e7e67b2	0.24844244
180	0x3e22d4b8	0.15901458
181	0xbe27d36f	-0.1638925
182	0xbe719745	-0.23592861
183	0x3e1fa9a5	0.15592058
184	0x3df55bfa	0.11980434
185	0xbe1a698b	-0.15079324
186	0x3ea90e78	0.3301885
187	0xbc13814c	-0.009002995
188	0xbe0e79d5	-0.13913663
189	0x3eb54f6b	0.35412154
190	0x3ec0ba4e	0.3764214
191	0x3c20f610	0.009824291
192	0x3e98c6b9	0.29839113
193	0xbd0bdfd5	-0.03414901
194	0x3e67dbab	0.2264239
195	0x3c91f928	0.017819002
196	0x3eb32f75	0.34997144
197	0xbe9a84b0	-0.30179358
198	0x3dad73b1	0.08469332
199	0x3e8e3c50	0.2778039
200	0x3d3b5324	0.045733586
201	0x3e2f2412	0.17103603
202	0x3e43a574	0.19106084
203	0x3e81fdab	0.25388846
204	0x3eb9e9ca	0.3631118
205	0x3dfc87ae	0.12330566
206	0xbe1c4f22	-0.15264562
207	0x3dda028a	0.106450155
208	0x3e7af4b9	0.24507417
209	0x3e312f7b	0.17303269
210	0xbea89649	-0.32927158
211	0xbe0de9da	-0.13858739
212	0xbe694db8	-0.22783554
213	0xbe85fdab	-0.26170096
214	0xbe1d7f20	-0.15380526
215	0xbeafa0b4	-0.34302294
216	0xbe65e013	-0.22448759
217	0x3df26279	0.118351884
218	0xbe9f9663	-0.31169423
219	0xbca3fe98	-0.02001886
220	0xbe4e0c5e	-0.20121905
221	0x3d98ec12	0.07466902
222	0x3d0b97e1	0.03408039
223	0xbe1c7aa6	-0.15281162
224	0x3ea18763	0.31548604
225	0x3e8fa27b	0.2805365
226	0xbe2261a1	-0.15857555
227	0xbe4dce4c	-0.20098227
228	0x3b5500ef	0.0032501777
229	0x3d23a5dd	0.0399531
230	0x3b583e30	0.003299605
231	0x3df9a85a	0.12190314
232	0x3e951325	0.2911617
233	0xbda2cbbb	-0.07949015
234	0xbe63d1f9	-0.22248067
235	0xbe108e5c	-0.14116806
236	0x3e06f545	0.131795
237	0xbe939830	-0.28827047
238	0x3ea62770	0.32451963
239	0xbe220198	-0.1582092
240	0xbdddab7e	-0.10823725
241	0xbe9ef7b8	-0.3104837
242	0x3e0f4dee	0.13994572
243	0xbe959323	-0.2921382
244	0x3e94687e	0.2898597
245	0x3d250c69	0.04029504
246	0x3d7187f7	0.058967557
247	0x3ea412d5	0.32045618
248	0x3e590ac0	0.21195507
249	0xbe1dc3ce	-0.15406725
250	0xbe52845c	-0.20558304
251	0xbe3471d0	-0.17621541
252	0xbebf50c5	-0.3736631
253	0xbe96d7bd	-0.2946147
254	0x3e987b97	0.29781792
255	0x3e4bd085	0.19903763

network.0.bias f4 [128]
0	0xbe3f6070	-0.18689132
1	0xbe7f6a27	-0.24942838
2	0x3ebc5f4d	0.3679146
3	0x3ebb5680	0.36589432
4	0xbe24fb76	-0.1611155
5	0xbeb200c4	-0.3476621
6	0xbacd5d58	-0.0015668077
7	0x3dddc176	0.10827915
8	0xbe2d1a59	-0.16904582
9	0xbe880d78	-0.26572776
10	0xbe1afdc4	-0.15135866
11	0xbd0c3fe2	-0.03424061
12	0xbe02e777	-0.1278361
13	0xbe977448	-0.29580903
14	0xbea367e9	-0.31915215
15	0x3d214a7e	0.039377682
16	0x3bd83ef2	0.0065993005
17	0xbdde76dc	-0.108625144
18	0xbe5074fb	-0.20357125
19	0x3e144417	0.14479099
20	0xbea2e085	-0.3181192
21	0x3e1d541b	0.15364115
22	0xbea6f844	-0.32611287
23	0xbe60fbc9	-0.21971048
24	0x3e07b381	0.13252069
25	0xbe6d0471	-0.23146226
26	0x3eafc632	0.343309
27	0xbe7f9dcb	-0.24962537
28	0x3dcb8b6f	0.09938704
29	0xbe9b3f9f	-0.30321977
30	0x3da600be	0.0810561
31	0xbe81c7d4	-0.2534777
32	0xbebc7684	-0.3680917
33	0x3e36cf65	0.17852552
34	0x3e9cdf25	0.30638996
35	0xbe54e4dc	-0.20790428
36	0x3e9d7adf	0.30757806
37	0x3ea7b5c2	0.32755858
38	0xbec0d57f	-0.37662885
39	0xbcfebe15	-0.031096498
40	0x3ec1621f	0.37770173
41	0x3da660fb	0.08123966
42	0xbe9fbd49	-0.311991
43	0x3dd493de	0.10379766
44	0xbeb42504	-0.3518449
45	0x3ea55af1	0.32295945
46	0xbb4e1e1b	-0.003145105
47	0x3dabb99d	0.08385012
48	0xbe1c68d0	-0.15274358
49	0xbe69730e	-0.22797796
50	0xbe60329d	-0.21894307
51	0xbe995c7b	-0.2995337
52	0x3eba77cf	0.36419532
53	0xbe97c33f	-0.29641148
54	0xbdbfe2ac	-0.09369406
55	0xbe9232cf	-0.2855439
56	0xbe0849e9	-0.13309444
57	0x3e80cf4b	0.25158152
58	0xbdbbba95	-0.09166447
59	0x3df1a609	0.11799247
60	0x3eae9431	0.34097436
61	0xbd0eda00	-0.03487587
62	0x3dfdb3c9	0.12387807
63	0xbea8f9a2	-0.33002955
64	0xbe9c59ae	-0.3053717
65	0xbeab6987	-0.33478948
66	0xbe13942f	-0.14411996
67	0xbe15e606	-0.14638528
68	0x3cad9d20	0.021193087
69	0x3deb0f3a	0.114775136
70	0xbeb37d2a	-0.3505643
71	0xbd5af67e	-0.05345773
72	0xbe80a769	-0.25127724
73	0x3e95aa6b	0.2923158
74	0xbddaef38	-0.106901586
75	0x3e87781a	0.26458818
76	0x3e114408	0.14186108
77	0x3e6537b4	0.2238453
78	0x3dbce441	0.092232235
79	0xbdd5024e	-0.1040083
80	0x3e02cf98	0.12774503
81	0xbde9af6a	-0.11410411
82	0x3ddeaf69	0.108733006
83	0xbe828622	-0.2549296
84	0xbe1f6a95	-0.15568002
85	0xbe184acf	-0.14872287
86	0xbea0a825	-0.31378284
87	0x3d1d3a55	0.038385708
88	0x3e9e2b0b	0.30892214
89	0x3ea072d2	0.313376
90	0x3eaa1ef0	0.33226728
91	0xbebd7a82	-0.3700753
92	0x3ea61cbc	0.32443798
93	0xbe770576	-0.24123177
94	0xbc94221f	-0.018082676
95	0xbeab48fd	-0.33454123
96	0xbe43246d	-0.19056864
97	0x3cfb0c6b	0.03064557
98	0x3c174b88	0.009234317
99	0xbe6ef437	-0.23335348
100	0x3e728c0a	0.23686233
101	0x3ded8190	0.11596978
102	0xbe21d642	-0.15804389
103	0xbe846a58	-0.25862384
104	0xbe2963e9	-0.16542019
105	0xbea4597d	-0.32099524
106	0x3eb6cb2b	0.3570188
107	0x3da643f9	0.081184335
108	0xbebc8beb	-0.368255
109	0xbe75796c	-0.239721
110	0x3ea673c9	0.32510212
111	0xbe1c6e5d	-0.15276475
112	0xbec0b24c	-0.3763603
113	0xbd1138a2	-0.0354544
114	0x3e03ac95	0.12858804
115	0x3ea28a46	0.3174612
116	0x3d2b6c2e	0.041851215
117	0x3e0ef641	0.13961126
118	0x3de69b80	0.11260128
119	0xbd63c929	-0.055611763
120	0x3ebffb55	0.3749644
121	0x3e493b87	0.19651614
122	0xbe968ff9	-0.29406717
123	0xbe5ce619	-0.2157215
124	0xbea047bf	-0.31304738
125	0x3eb78157	0.35840866
126	0xbd9584a0	-0.07300687
127	0x3dc06695	0.09394566

network.3.weight f4 [64, 128]
0	0x3d9fd772	0.07804765
1	0xbd79d72d	-0.060996223
2	0xbdb27ace	-0.087148294
3	0xbc8b72e2	-0.017022554
4	0xbd78ca9c	-0.0607401
5	0xbd3623fe	-0.04446792
6	0xbd9e6431	-0.07733954
7	0x3a2a6b13	0.00065009407
8	0xbd6beb0a	-0.057597198
9	0xbd435979	-0.04769275
10	0x3ce39440	0.027780652
11	0xbd30db24	-0.04317774
12	0xbb11eec0	-0.002226755
13	0xbd623f89	-0.055236373
14	0xbdaa34aa	-0.08310826
15	0xbd564b1a	-0.052317716
16	0xbd25ab64	-0.040446654
17	0xbd886964	-0.06660727
18	0xbd0112d6	-0.031512104
19	0xbd889503	-0.06669047
20	0xbb1c3ebb	-0.0023841101
21	0x3daa5f32	0.08318938
22	0xbda4670d	-0.08027468
23	0x3cde285b	0.027118852
24	0x3daa9e76	0.08331005
25	0x3da8f9a8	0.08250743
26	0xbd2e8940	-0.04261136
27	0x3d8d02af	0.068852775
28	0xbd20fbe2	-0.039302714
29	0x3c9ef769	0.019405084
30	0x3b80e3fd	0.0039334283
31	0xbc640410	-0.013916984
32	0xbd9df5db	-0.07712909
33	0x3d9e831b	0.0773985
34	0x3d8435b3	0.06455555
35	0xbd6f0f32	-0.0583641
36	0xbd5e172a	-0.05422131
37	0x3d926eb9	0.07150025
38	0xbd48cc36	-0.049022876
39	0x3d8e2516	0.06940667
40	0xbd992dc7	-0.074794345
41	0x3d8a1b74	0.067435175
42	0x3d89b41e	0.06723808
43	0xbd7c9a49	-0.061670575
44	0x3d01e927	0.031716492
45	0x3d8d6dbc	0.06905696
46	0xbb9e0676	-0.0048225475
47	0x3d929d51	0.07158912
48	0x3d1350ca	0.03596572
49	0x3d7a4996	0.061105333
50	0x3cfc175c	0.030772857
51	0x3da99909	0.08281142
52	0x3d9a4677	0.07532971
53	0x3d9f89e1	0.0778997
54	0xbd55a46c	-0.052158758
55	0xbd279d37	-0.040921416
56	0x3d75100a	0.05982975
57	0xbd03be9e	-0.03216421
58	0xbd9d6f06	-0.07687192
59	0x3cf15f36	0.029464345
60	0xbd366506	-0.044529937
61	0xbbee3ef7	-0.0072706896
62	0x3d518d32	0.051160045
63	0x3c2ab3d1	0.010418848
64	0x3daf7dec	0.085689396
65	0x3d193ac2	0.03740955
66	0x3cbe9910	0.023266345
67	0xbd4cc1e7	-0.049989607
68	0xbba80713	-0.0051277964
69	0x3d7e48b4	0.062081054
70	0x39f6788d	0.00047010594
71	0x3db29f6f	0.08721816
72	0xbbcbcb39	-0.0062192944
73	0xbd808708	-0.06275755
74	0xbcc64e6c	-0.024207316
75	0xbd830a8e	-0.063984975
76	0x3b860d65	0.004090952
77	0x3dae7f04	0.0852032
78	0x3bf0fe2f	0.00735452
79	0xbcf6a311	-0.030107053
80	0x3dac770d	0.08421145
81	0xbd3af0b6	-0.045639716
82	0xbd9fb45b	-0.07798072
83	0xbcf5936d	-0.029977525
84	0x3da486fb	0.08033558
85	0xbd49ab59	-0.049235675
86	0x3d09190c	0.033471152
87	0x3d9b6e2b	0.07589372
88	0xbc4c8465	-0.012482737
89	0xbda027d0	-0.07820094
90	0xbc3b3c4b	-0.011427949
91	0xbd58ec6c	-0.052959844
92	0xbd307c1a	-0.043087102
93	0xbd9160ac	-0.07098517
94	0x3c96de15	0.018416444
95	0x3c365024	0.011127505
96	0x3d8a3288	0.06747919
97	0xbcedbfaa	-0.029022057
98	0xbd600815	-0.054695208
99	0x3d9b8cdb	0.075952254
100	0x3d240477	0.04004332
101	0x3d034c8b	0.03205542
102	0x3d402b76	0.046916448
103	0x3dacddcd	0.08440743
104	0xbb43b2de	-0.0029861252
105	0x3d5b2c4e	0.05350905
106	0x3da6abae	0.08138214
107	0x3d504d38	0.05085489
108	0xbd96e7d1	-0.07368434
109	0xbda93779	-0.08262534
110	0x3ca720d2	0.020401392
111	0x3d4aeb12	0.049540587
112	0xbd367a94	-0.044550493
113	0xbdadcfa6	-0.084868714
114	0x3d1109ae	0.035409622
115	0x3d912827	0.070877366
116	0xbc67ef67	-0.014156199
117	0x3cc46e4c	0.023978375
118	0x3d6c074a	0.05762414
119	0xbc7e0cda	-0.015505994
120	0x3d139996	0.036035143
121	0xbd809b2f	-0.06279599
122	0xbd18ede2	-0.037336238
123	0xbd9855ae	-0.07438217
124	0x3c88d1b2	0.016701553
125	0x3ccc7fee	0.024963345
126	0xbd9e0984	-0.07716659
127	0xbd79c739	-0.06098101
128	0x3d24fbc6	0.040279172
129	0x3cc3b9ad	0.023892248
130	0x3d38eeb8	0.045149535
131	0x3d3fec68	0.046856314
132	0xbd959d30	-0.07305372
133	0x3d5b301d	0.05351268
134	0x3cd378ef	0.025814502
135	0x3cec54bd	0.028849
136	0x3bd63ff9	0.006538388
137	0x3d10cb8b	0.035350364
138	0xbd1bfc74	-0.038082555
139	0xbc0fb60f	-0.0087714335
140	0x3db4c688	0.08826929
141	0x3cb48414	0.022035636
142	0xbcdbb477	-0.02681945
143	0x3d896986	0.0670958
144	0xbb82e8e2	-0.003995047
145	0x3d42ad0a	0.047528304
146	0xbd73347c	-0.059376225
147	0xbd58f5d8	-0.05296883
148	0x3c8c1075	0.017097691
149	0xbd318848	-0.04334286
150	0xbc768c2c	-0.015048068
151	0xbc659a1e	-0.014013795
152	0x3c618fe3	0.013767215
153	0xbda45065	-0.080231465
154	0xbd15dd70	-0.036588132
155	0x3d973619	0.07383365
156	0xbd9dc03d	-0.07702682
157	0xbb64cc21	-0.003491171
158	0xbd0c82d5	-0.03430446
159	0x3d0a7e66	0.03381195
160	0x3d091251	0.033464734
161	0xbd86a827	-0.06575041
162	0xbc36016e	-0.011108739
163	0x3d911b4f	0.07085287
164	0xbd7ae0b8	-0.061249465
165	0x3d2b7c3d	0.04186653
166	0x3c08a876	0.0083409455
167	0xbd589fc1	-0.05288673
168	0xbda2730f	-0.07932102
169	0x3c15ef6f	0.009151324
170	0x3d861cdd	0.06548474
171	0x3c5622c3	0.013069811
172	0xbce6192d	-0.028088177
173	0x3d914bd1	0.07094539
174	0x3d29400e	0.041320853
175	0x3ca4c6d4	0.02011434
176	0x3d9abb78	0.07555288
177	0x3c8157d8	0.015788957
178	0x3d7c4182	0.06158591
179	0x3da0a9ac	0.07844862
180	0x3dadd4df	0.084878676
181	0x3d9ab1f1	0.07553471
182	0xbda4e5f4	-0.080516726
183	0xbd9190ac	-0.07107672
184	0x3d80defc	0.06292531
185	0xbc8c8428	-0.01715286
186	0x3d45381c	0.048149213
187	0x3d6b7aa2	0.05749
188	0xbbe662e4	-0.0070308316
189	0x3d4cd603	0.050008785
190	0xbda192f3	-0.078893565
191	0x3d958efa	0.07302661
192	0x3d24b256	0.040209137
193	0xbd4f0996	-0.05054625
194	0x3d832b01	0.06404687
195	0xbd8c2e9d	-0.06844828
196	0xbd0d77e3	-0.03453816
197	0x3d34d127	0.044144776
198	0xb8333516	-4.2726366e-05
199	0xbd3ffedc	-0.046873912
200	0x3c4c47fb	0.012468333
201	0x3d10daf4	0.03536506
202	0x3d8b615f	0.068056814
203	0xbda21e84	-0.07915977
204	0x3c27c270	0.010239229
205	0x3ce4ca13	0.027928388
206	0xbc9115b0	-0.017710537
207	0x3d6c720a	0.057725944
208	0xbcb38870	-0.021915644
209	0x3d3cb00e	0.046066336
210	0xbd3f7211	-0.04673964
211	0x3d79e27e	0.061007015
212	0x3d6f5360	0.058429122
213	0xbd237b6b	-0.039912622
214	0x3c5b6f20	0.0133931935
215	0x3d536ab7	0.051615443
216	0xbda81f76	-0.08209126
217	0x3c1f5ab7	0.009726218
218	0x3ccc224e	0.024918701
219	0xbdb275da	-0.08713885
220	0x3ad63202	0.0016341808
221	0xbd06261c	-0.032751188
222	0xbdafa6d3	-0.08576741
223	0xbd45e4f6	-0.048314057
224	0xbccdfe8b	-0.02514579
225	0x3d68660d	0.05673795
226	0x3c1e77dd	0.009672132
227	0x3d18e0ae	0.037323646
228	0xbb52e6c9	-0.0032181016
229	0x3d8bd5b3	0.06827869
230	0x3d0b0c7f	0.033947464
231	0xbd25f6ff	-0.040518757
232	0xbda18eb5	-0.07888547
233	0xbd998ae8	-0.074971974
234	0xbd380e2e	-0.044935398
235	0xbdb273cb	-0.08713492
236	0xbd8c0526	-0.068369195
237	0xbd980321	-0.07422472
238	0x3da5a496	0.08088033
239	0xbd1a6cc0	-0.03770137
240	0xbda8e957	-0.08247631
241	0x3d53d95b	0.05172096
242	0xbd48c860	-0.049019217
243	0x3c876e7c	0.016532175
244	0x3da0168f	0.07816803
245	0xbd515835	-0.05110951
246	0xbdb22efa	-0.08700366
247	0x3c43bc04	0.011946682
248	0x3d9a909e	0.07547115
249	0xbd262314	-0.040560797
250	0x3d8c98c2	0.06865074
251	0xbc8a11af	-0.016854135
252	0x3cc1efef	0.02367398
253	0x3c4ae914	0.012384672
254	0xbd100139	-0.035157416
255	0x3c18920f	0.009312167

network.3.bias f4 [64]
0	0xbd819703	-0.06327631
1	0x3d966b2e	0.07344662
2	0x3d78b81d	0.06072246
3	0xbda9779c	-0.08274767
4	0x3cbe1b3e	0.02320635
5	0xbdac7671	-0.084210284
6	0x3bd36ed0	0.006452419
7	0x3ca3620d	0.019944215
8	0x3da0c6b9	0.07850403
9	0x3da78926	0.08180456
10	0x3d91bd09	0.07116134
11	0xbcd4c716	-0.025973838
12	0x3ce18575	0.027529458
13	0x3b770b47	0.003769593
14	0x3b3e89fe	0.002907395
15	0x3d3d0d6d	0.046155382
16	0xbd091374	-0.033465818
17	0xbd30057c	-0.04297398
18	0xbd842b52	-0.06453575
19	0xbcaf66ce	-0.021411326
20	0xbcd429bc	-0.025898807
21	0x3d27dcd3	0.04098208
22	0x3d39742d	0.04527681
23	0x3d93995e	0.07206987
24	0x3d467b58	0.048457474
25	0x3d91cb11	0.0711881
26	0xbd406e6b	-0.046980303
27	0xbd8bf23a	-0.068333104
28	0xbd254f80	-0.04035902
29	0xbd45a470	-0.048252523
30	0xbcdfd619	-0.02732377
31	0xbc7aace6	-0.015300011
32	0x3d3943d1	0.04523069
33	0x3d01e58a	0.031713046
34	0x3d55c671	0.0521912
35	0x3c5eb046	0.013591832
36	0xbd06c25c	-0.0329002
37	0x3d1b4539	0.037907813
38	0xbd05b715	-0.032645304
39	0x3b153944	0.0022769729
40	0xbd8af1cf	-0.067844026
41	0xbc7e2da5	-0.015513812
42	0x3c3fe47a	0.011712188
43	0xbb94943f	-0.004534274
44	0x3da93758	0.08262509
45	0x3c81a567	0.01582594
46	0x3d7e9c13	0.062160563
47	0x3d0d765a	0.034536697
48	0xbd641727	-0.055686142
49	0xbda28b1d	-0.0793669
50	0xbc89b71b	-0.016810944
51	0xbda0330f	-0.07822239
52	0x3cfb0627	0.030642582
53	0xbdb1209f	-0.086488
54	0x3d8c4af7	0.06850236
55	0x3d97fa68	0.07420808
56	0xbd8d681c	-0.06904623
57	0x3d79b82a	0.06096665
58	0xbd543268	-0.051805884
59	0xbdb22096	-0.086976215
60	0xbd23d7c3	-0.04000069
61	0xbcc27539	-0.023737537
62	0x3d03873e	0.0321114
63	0xbcc83cd8	-0.024443075

network.6.weight f4 [32, 64]
0	0x3c9ec808	0.019382492
1	0xbc8184c8	-0.015810385
2	0xbbebca00	-0.007195711
3	0x3dac0070	0.08398521
4	0xbcb9b128	-0.022667482
5	0x3c913b58	0.017728493
6	0x3d03f948	0.032220155
7	0xbdd9e4dc	-0.106393546
8	0x3d7699b4	0.060205176
9	0x3d1242c8	0.03570822
10	0xbd22e138	-0.039765567
11	0x3cefb360	0.029260337
12	0x3c24dc50	0.010062292
13	0xbdb4456a	-0.08802302
14	0x3d4696ac	0.048483536
15	0xbcacc468	-0.021089748
16	0xbcc09538	-0.023508653
17	0xbd13abe4	-0.0360526
18	0xbda87dac	-0.08227095
19	0xbd2da248	-0.04239109
20	0xbd4308a8	-0.047615677
21	0x3db32fc2	0.087493435
22	0x3c4fc9b0	0.012682363
23	0xbdf46564	-0.11933401
24	0x3de42044	0.11138967
25	0x3d335d18	0.043789953
26	0x3d98b55c	0.074564666
27	0x3dc08c44	0.094017535
28	0xbd568ca4	-0.05238022
29	0x3cb5a6f0	0.022174329
30	0x3dc0c5f8	0.094127595
31	0xbd092794	-0.03348501
32	0xbde2d514	-0.11075798
33	0xbd8a8fee	-0.06765734
34	0xbdeb3b68	-0.1148594
35	0x3dd43dd6	0.10363357
36	0x3c715fe0	0.014732331
37	0xbd858a5a	-0.06520529
38	0xbd9c1a2c	-0.076221794
39	0x3dd74874	0.10511866
40	0x3d8270e6	0.0636919
41	0xbd9a57f2	-0.075363055
42	0xbcd109c8	-0.02551736
43	0x3deb26ee	0.114820346
44	0xbdaecb66	-0.08534889
45	0x3d9549c0	0.07289457
46	0xbceaa7d0	-0.028644472
47	0xbcf01c90	-0.029310495
48	0x3db167e2	0.08662392
49	0x3d0732a0	0.033007264
50	0xbdd00fb0	-0.10159242
51	0xbd645858	-0.055748314
52	0xbcbfa338	-0.023393258
53	0xbd8c05ce	-0.06837045
54	0xbd665b4c	-0.05623941
55	0x3cf0f920	0.029415667
56	0x3dd8cb68	0.10585672
57	0x3cf41660	0.029795825
58	0x3c486d00	0.012233019
59	0x3c233930	0.009962365
60	0x3d9811cc	0.074252695
61	0x3db6f27c	0.08932969
62	0xbd81d68e	-0.06339751
63	0x3da0e3ea	0.07855971
64	0x3dda923e	0.10672425
65	0x3dc09d38	0.09404987
66	0x3d441c88	0.047878772
67	0x3cb5cbc0	0.022191882
68	0xbd4a6d7c	-0.04942082
69	0xbd811978	-0.06303686
70	0xbc0ff5a0	-0.008786589
71	0xbd3e6ce4	-0.046490565
72	0xbdc2a7ba	-0.095046476
73	0x3d5c0094	0.05371149
74	0xbd6319dc	-0.055444583
75	0xbd97df3c	-0.074156255
76	0x3c97bfe0	0.01852411
77	0xbc4ea4f0	-0.012612566
78	0xbcc2e750	-0.023791939
79	0xbdca1c72	-0.09868707
80	0xbcbe5318	-0.023232982
81	0xbcad6518	-0.02116637
82	0xbd0dd008	-0.034622222
83	0x3d8b836a	0.068121746
84	0xbdf13d24	-0.1177924
85	0xbdc59b02	-0.09648706
86	0xbd979344	-0.074011356
87	0x3def065a	0.11671133
88	0x3cda9d18	0.026686236
89	0xbdf92180	-0.12164593
90	0xbd906208	-0.07049948
91	0x3b8ac860	0.0042353123
92	0xba911a00	-0.0011070371
93	0xbded1f9a	-0.11578293
94	0x3d7b5b68	0.06136647
95	0x3d9a5ec0	0.075376034
96	0xbd258bf4	-0.040416673
97	0xbd4f5bfc	-0.050624833
98	0xbd25c0fc	-0.040467247
99	0xbc548520	-0.012971193
100	0xbdf80cfe	-0.12111853
101	0xbd0e7d84	-0.03478767
102	0x3d1b2a6c	0.037882254
103	0xbd8553d4	-0.065101296
104	0xbcb271d0	-0.021782786
105	0xbd0f5e18	-0.035001844
106	0x3d665a0c	0.05623822
107	0x3cf2dc78	0.029646143
108	0x3def9dd4	0.11700025
109	0x3dc5b4a2	0.096535936
110	0x3d500528	0.050786167
111	0xbce23cc0	-0.027616858
112	0xbdf9481e	-0.121719584
113	0xbcf043e0	-0.02932924
114	0xbd9f03ce	-0.077643976
115	0x3cdc7738	0.026912317
116	0x3bb4a820	0.005513206
117	0xbcea1ad8	-0.028577253
118	0x3db21870	0.08696067
119	0xbcd1cd18	-0.025610492
120	0xbdbf8142	-0.09350826
121	0xbdfcf08c	-0.12350568
122	0xbde821d6	-0.11334579
123	0x3d2faf00	0.042891502
124	0x3c86d758	0.016460106
125	0xbdac8074	-0.08422938
126	0x3c8d3fa8	0.017242268
127	0x3db540bc	0.08850238
128	0x3d8b58b4	0.06804028
129	0x3d8ce580	0.06879711
130	0x3df04840	0.117325306
131	0xbdcda41a	-0.100410655
132	0x3d4941c8	0.049135
133	0xbac8be80	-0.0015315562
134	0xbdc23838	-0.09483379
135	0xbdbb66e8	-0.09150487
136	0x3d2a52dc	0.041582927
137	0x3df29c12	0.11846174
138	0x3d65f064	0.056137457
139	0x3d44afe0	0.04801929
140	0x3db7b8ac	0.0897077
141	0x3dbfbc14	0.09362045
142	0x3df2c488	0.118538916
143	0xbcd1ef38	-0.025626764
144	0xbd275a90	-0.04085785
145	0x3d7577e4	0.05992879
146	0xbb63fd80	-0.003478855
147	0xbc815e38	-0.015791997
148	0xbda407ec	-0.080093235
149	0xbd1c3598	-0.03813705
150	0xbd2863c0	-0.041110754
151	0xbdae9896	-0.08525197
152	0xbcf31308	-0.02967216
153	0x3dd8b394	0.10581127
154	0xbdeadf84	-0.114684135
155	0xbdaa0342	-0.08301403
156	0xbdaf6c56	-0.08565585
157	0x3d9683c8	0.07349354
158	0xbd3fa8f0	-0.04679197
159	0xbca190c8	-0.019722357
160	0x3ab01d80	0.0013436526
161	0xbd5d2a3c	-0.053995356
162	0x3cc5ada0	0.024130642
163	0x3cbda908	0.02315189
164	0x3d8a2d54	0.06746927
165	0xbd95a85a	-0.07307501
166	0x3ddeff72	0.10888566
167	0xbb438a00	-0.0029836893
168	0x3bbacd40	0.0057007372
169	0xbdb37556	-0.087626144
170	0xbdf90388	-0.12158877
171	0xbdbe8a0e	-0.093036756
172	0xbda9bb90	-0.08287728
173	0xbbab1d20	-0.005221978
174	0xbda79e3a	-0.08184476
175	0xbdc1022a	-0.09424241
176	0xbc340c60	-0.010989279
177	0x3d842332	0.064520255
178	0x3c7e9f60	0.015540928
179	0x3dbae9ac	0.091266006
180	0x3bcd6500	0.0062681437
181	0x3dff1faa	0.12457211
182	0xbd179a40	-0.03701234
183	0xbd29cae8	-0.041453272
184	0xbd766c14	-0.060161665
185	0xbd453620	-0.04814732
186	0xbde7092a	-0.11281045
187	0x3d6bf22c	0.057604
188	0x3d2398e8	0.039940745
189	0xbcbc8a18	-0.023015067
190	0xbdda9e04	-0.1067467
191	0x3c8b8250	0.017029911
192	0x3d52a8c8	0.051430494
193	0xbddc3fa0	-0.10754323
194	0x3df75700	0.12077141
195	0xbdd1e91c	-0.1024954
196	0xbd6c5e00	-0.057706833
197	0x3dfc429a	0.12317391
198	0xbbebf7c0	-0.007201165
199	0xbbae64a0	-0.005322054
200	0xbde220a4	-0.11041382
201	0x3db4e77c	0.08833215
202	0xbdffe9a2	-0.12495734
203	0xbda6ad9c	-0.08138582
204	0xbd938e4c	-0.07204875
205	0xbcfa32a8	-0.030541733
206	0x3df98474	0.121834666
207	0x3da2a4b0	0.07941568
208	0xbc1f76a0	-0.009732872
209	0x3d68f0b8	0.056870192
210	0xbc5e6890	-0.013574734
211	0x3d39f6e8	0.045401484
212	0x3dc12b12	0.09432043
213	0x3d5af7d4	0.053459004
214	0xbd26f6d8	-0.040762752
215	0xbcb037d8	-0.021511003
216	0xbd1ccb30	-0.038279712
217	0x3df4c59c	0.119517535
218	0x3d929d62	0.07158925
219	0x3daa14da	0.08304758
220	0x3db9c098	0.090699375
221	0xbd9ad176	-0.07559483
222	0x3df294ca	0.118447855
223	0xbd8a9f36	-0.06768648
224	0xbd8e1cac	-0.069390625
225	0x3d208fc8	0.03919962
226	0xbd1c7988	-0.03820184
227	0x3da606e4	0.08106783
228	0xbdba7488	-0.09104258
229	0xbc540ec0	-0.01294297
230	0xbd2463cc	-0.040134236
231	0x3ded35d6	0.11582534
232	0x3d5e2358	0.054232925
233	0x3bf546a0	0.007485226
234	0x3b728f40	0.0037011653
235	0x3d3c1b38	0.045924395
236	0xbd258620	-0.040411115
237	0xbdf58608	-0.11988455
238	0x3dac2198	0.08404845
239	0xbc8985b0	-0.01678738
240	0x3dc17d26	0.09447698
241	0x3ddb2292	0.10699953
242	0x3dab91f4	0.08377448
243	0xbd6adcec	-0.057339594
244	0xbd0c6468	-0.034275442
245	0xbced39a8	-0.028958157
246	0x3bfec080	0.0077744126
247	0x3dc9f164	0.09860495
248	0x3d464a1c	0.04841052
249	0xbd3a96bc	-0.045553908
250	0x3d47c288	0.048769504
251	0x3da3935a	0.079870895
252	0x3d9771f2	0.0739478
253	0x3d45df58	0.0483087
254	0x3dfb1938	0.122606695
255	0x3d074b4c	0.033030793

network.6.bias f4 [32]
0	0x3cede5b0	0.029040188
1	0xbd83d0d6	-0.06436317
2	0xbdbaf538	-0.09128803
3	0x3c87a020	0.016555846
4	0xbdf6a502	-0.120431915
5	0x3d8d9eec	0.069150776
6	0x3dba20aa	0.090882614
7	0xbcfa1c10	-0.03053096
8	0x3a30d800	0.00067460537
9	0xbc3e2460	-0.011605352
10	0x3c7196b0	0.014745399
11	0xbceed888	-0.029155985
12	0xbd1f84bc	-0.038944945
13	0x3d9cf9c4	0.076648265
14	0x3cd07300	0.025445461
15	0x3da0b6ce	0.07847367
16	0x3cd38cb0	0.025823921
17	0xbd5c0c60	-0.05372274
18	0xbdd326d4	-0.1031014
19	0xbccf8810	-0.025333434
20	0xbca84af8	-0.02054356
21	0x3d1e3934	0.038628772
22	0xbdc11a6c	-0.09428868
23	0xbd9327f6	-0.07185356
24	0x3de966d0	0.11396563
25	0x3de00b44	0.10939649
26	0xbdb89a2a	-0.090137795
27	0x3d33c3a8	0.043887764
28	0xbca78950	-0.020451218
29	0xbd8e47c0	-0.06947279
30	0xbd8e98ee	-0.06962763
31	0x3a1f3800	0.00060737133

network.9.weight f4 [7, 32]
0	0xbdbb96d9	-0.09159631
1	0x3e00c635	0.1257561
2	0x3d5fbea7	0.05462518
3	0x3e1a6773	0.15078525
4	0x3e29ad1e	0.16569945
5	0x3d01401c	0.03155528
6	0x3dcdd47e	0.10050295
7	0xbdb29d80	-0.08721447
8	0xbe336b30	-0.17521358
9	0x3d97987f	0.07402133
10	0xbdf81c87	-0.12114816
11	0x3c64acaa	0.013957182
12	0xbd9e048d	-0.07715712
13	0x3dbfd0d7	0.09366005
14	0xbdff8b47	-0.12477737
15	0x3d4b5e0a	0.04965023
16	0xbd4ab7e4	-0.049491778
17	0x3d351339	0.044207785
18	0xbdf4b38a	-0.11948307
19	0xbe13b12c	-0.14423054
20	0xbcfe9bdd	-0.03108018
21	0xbbde71f6	-0.0067884875
22	0xbca66976	-0.02031396
23	0x3d7c2a1f	0.061563607
24	0x3e203c3a	0.15647975
25	0xbdd19286	-0.10233025
26	0xbdc228b0	-0.09480417
27	0x3b3f15a5	0.0029157188
28	0x3d950c99	0.072777934
29	0xbde90121	-0.113771684
30	0xbe328d2a	-0.17436662
31	0x3d6901f5	0.056886632
32	0x3d86b56e	0.06577574
33	0xbdd3c953	-0.10341134
34	0xbdf8096d	-0.12111173
35	0x3e2a87b6	0.16653332
36	0xbd6ed057	-0.058304157
37	0xbe24f5be	-0.16109368
38	0x3d7c3f17	0.061583605
39	0x3d574b92	0.052562304
40	0xbd8b9958	-0.068163574
41	0x3da9a9a3	0.08284309
42	0x3e0e6573	0.13905887
43	0xbdb9eef0	-0.09078777
44	0x3d6e5899	0.058189962
45	0xbe0e7e6b	-0.13915412
46	0x3d87752b	0.06614145
47	0x3cc433df	0.023950515
48	0x3dea5b50	0.11443198
49	0x3da9ee42	0.08297397
50	0xbd8b2084	-0.06793311
51	0x3e120c4f	0.14262508
52	0x3d492caf	0.04911488
53	0xbe1d1707	-0.15340815
54	0x3de84d4b	0.113428675
55	0xbbf263cd	-0.007397151
56	0xbe052f76	-0.13006386
57	0xbcddbbed	-0.027067149
58	0xbe2fcaa6	-0.17167148
59	0x3dd3b1de	0.1033666
60	0x3db237be	0.08702038
61	0x3da2b844	0.07945302
62	0xbe257b7b	-0.16160385
63	0x3cb4aed1	0.022056015
64	0x3e09af85	0.13445862
65	0x3e193736	0.14962468
66	0xbc5d874a	-0.013521025
67	0x3e1019f1	0.14072396
68	0xbce444f0	-0.027864903
69	0x3d080a2e	0.033212833
70	0xbe0c9d33	-0.13731842
71	0xbdb30208	-0.08740622
72	0x3cb873cb	0.022516152
73	0xbd81d8bc	-0.06340167
74	0xbe2e8b42	-0.1704531
75	0xbe1810db	-0.1485018
76	0x3dd9e6ea	0.106397465
77	0x3e084cc8	0.1331054
78	0x3e2e3293	0.1701148
79	0xbcac842a	-0.021059114
80	0x3db27c44	0.08715108
81	0x3dc51a3e	0.09624146
82	0x3e303d0b	0.17210786
83	0xbe20e9d6	-0.15714201
84	0x3db39412	0.087684765
85	0xbc5ca2fb	-0.013466592
86	0x3cd927f0	0.026508301
87	0x3be9569d	0.007120921
88	0xbdd7d5dd	-0.10538838
89	0x3d2b7fdd	0.041869987
90	0x3d6e49bf	0.0581758
91	0x3cb3d43b	0.021951785
92	0x3e13d986	0.14438447
93	0xbe146cbe	-0.14494607
94	0xbc08a0c5	-0.008339112
95	0x3e27b4b2	0.16377524
96	0x3d6884b1	0.05676717
97	0x3e045659	0.12923564
98	0x3a58e09c	0.00082732155
99	0x3dc284ef	0.09498011
100	0x3d95a371	0.073065646
101	0xbe340e04	-0.17583472
102	0xbd5783a1	-0.052615765
103	0x3d05f1ed	0.03270142
104	0xbe00df55	-0.12585194
105	0xbb1128f0	-0.0022149645
106	0xbdcc2569	-0.09968073
107	0x3d78e000	0.060760498
108	0x3e09e65b	0.1346678
109	0xbcb9a7a7	-0.02266295
110	0xbdcec1ce	-0.10095559
111	0xbc6fe055	-0.014640887
112	0xbd3778ed	-0.04479306
113	0xbc330cf5	-0.010928382
114	0x3da5aa7c	0.08089158
115	0xbd2d48c9	-0.04230574
116	0xbd4bf3ba	-0.049792983
117	0xbe1b032d	-0.1513793
118	0xbe2edd68	-0.17076647
119	0xbe26991b	-0.16269343
120	0xbd66f3e5	-0.05638494
121	0xbd5a1d4e	-0.053250603
122	0xbe05b2b1	-0.13056447
123	0x3e28d999	0.16489257
124	0xbda6459b	-0.08118745
125	0xbd96839e	-0.07349323
126	0x3d2c63e7	0.04208746
127	0xbdbde8fe	-0.09272955
128	0x3d7da35c	0.06192337
129	0xbd68d5a7	-0.05684438
130	0x3c01af31	0.007915304
131	0xbe0a060e	-0.13478872
132	0xbc256276	-0.010094276
133	0xbe324aa9	-0.17411293
134	0x3d8dcd07	0.069238715
135	0xbda360e7	-0.07977467
136	0xbdb20626	-0.08692579
137	0xbd7340f3	-0.059388112
138	0xbdd951b7	-0.10611289
139	0xbe1bb588	-0.15205967
140	0xbdc3197b	-0.095263444
141	0xbdd5823d	-0.104252316
142	0x3d3d9f36	0.046294414
143	0xbe101360	-0.14069891
144	0x3e26dee8	0.1629597
145	0xbe27a28b	-0.16370599
146	0xbe29c3f8	-0.16578662
147	0xbdf5c36f	-0.120001666
148	0xbdaf74ac	-0.08567175
149	0xbd8d1358	-0.06888455
150	0x3d612d2e	0.054974727
151	0xbd96ee15	-0.07369629
152	0xbcfd0fcc	-0.030891322
153	0x3db1742c	0.08664736
154	0xbcaf2a31	-0.021382423
155	0x3dff287e	0.12458895
156	0xbd8f8367	-0.07007485
157	0xbc65a728	-0.014016904
158	0x3ca80285	0.020509014
159	0xbe2f48d6	-0.17117628
160	0xbcc09d6d	-0.023512566
161	0xbd224a91	-0.039621893
162	0xbdfaa692	-0.12238802
163	0xbda8c373	-0.08240404
164	0xbe28c068	-0.16479647
165	0xbcfefc2a	-0.0311261
166	0xbdc58389	-0.09644229
167	0x3bf8b3e5	0.0075898045
168	0x3d520471	0.051273767
169	0x3d937ed1	0.07201923
170	0xbd5acc61	-0.053417567
171	0x3e0acc1f	0.13554429
172	0xbe159928	-0.14609206
173	0x3d4ba964	0.04972209
174	0x3de7dc55	0.11321322
175	0x3e347e38	0.17626274
176	0xbe0aac36	-0.13542256
177	0xbdc46a62	-0.095906034
178	0x3defcfaf	0.117095344
179	0xbd404b3a	-0.04694674
180	0x3d9acd6f	0.075587146
181	0x3e157d36	0.14598545
182	0x3e24be20	0.16088152
183	0xbd2e9d26	-0.042630337
184	0xbe2a7a52	-0.16648224
185	0x3e261665	0.1621948
186	0x3e2fdc1b	0.17173807
187	0x3d94c68d	0.07264433
188	0x3dd82c11	0.1055528
189	0x3dd2f567	0.10300713
190	0x3d8d5e28	0.069027245
191	0x3da3a140	0.0798974
192	0xbc8c77f5	-0.017147044
193	0x3db354a1	0.08756376
194	0x3e25de8a	0.16198173
195	0x3d4fb44f	0.050709065
196	0x3dcca051	0.099915154
197	0x3e0a63c0	0.13514614
198	0xbe031e33	-0.12804489
199	0xbe24013a	-0.16016093
200	0xbe17e089	-0.14831747
201	0x3e0de4b6	0.13856778
202	0xbd2d12b7	-0.042254176
203	0x3e1dfaec	0.1542775
204	0x3d4c18d4	0.049828365
205	0xbd83a874	-0.06428614
206	0xbe283b51	-0.16428877
207	0xbc14c73f	-0.009080707
208	0xbe0b5fd4	-0.13610774
209	0x3cf018ba	0.029308666
210	0x3d7f4d43	0.062329542
211	0x3deec526	0.11658697
212	0xbb475ab9	-0.0030419065
213	0xbce63937	-0.028103454
214	0xbe272fd2	-0.16326836
215	0xbe0fed16	-0.14055285
216	0xbe10093e	-0.14066026
217	0xbe129b9c	-0.14317173
218	0xbd77aa71	-0.06046528
219	0xbdaf7fb5	-0.0856928
220	0x3c7c2c05	0.015391354
221	0x3dcf800f	0.10131847
222	0x3d1e0bfd	0.03858565
223	0xbd8f2e56	-0.0699126

network.9.bias f4 [7]
0	0x3bc89cd0	0.006122209
1	0x3e253956	0.16135153
2	0xbd688834	-0.05677052
3	0xbe1b482e	-0.15164253
4	0xbdeb0423	-0.114753984
5	0x3ce495c5	0.027903447
6	0x3d82d452	0.06388153
